Iris-Classification-Using-TensorFlow-bharat-intern-main/iris_classification.tflite (tflite, 2020 bytes, 4 tensors)

sequential/dense_1/BiasAdd/ReadVariableOp f4 [3]
-0.33802575 0.31471688 0.2734271
00000000: b611 adbe 9222 a13e a3fe 8b3e

sequential/dense/BiasAdd/ReadVariableOp f4 [10]
-0.111115344 0.0 0.21188577 0.0 0.0 0.0 0.0 0.0
-0.16644768 0.0
00000000: 7190 e3bd 0000 0000 95f8 583e 0000 0000
00000010: 0000 0000 0000 0000 0000 0000 0000 0000
00000020: 4371 2abe 0000 0000

sequential/dense/MatMul f4 [10, 4]
-0.17860688 0.52913105 -0.6915663 -0.60430735 -0.34439108 -0.56370443 -0.20573863 -0.02701801
0.34369966 0.8893991 -0.9294096 -0.80526435 0.0070003867 -0.41570884 0.1989277 -0.15530962
-0.54871404 0.067999125 -0.11752397 0.11685753 -0.1908235 0.17678988 -0.5458111 0.20328939
0.22972745 -0.50010777 -0.20030326 0.2560932 0.10018051 -0.15188158 -0.10755539 -0.34917733
-0.0037108916 -0.02098751 0.06572759 -0.113625966 -0.5183573 -0.5427196 0.072850764 -0.08328527
00000000: b9e4 36be 2275 073f 7d0a 31bf e3b3 1abf
00000010: 0754 b0be ef4e 10bf 26ad 52be e054 ddbc
00000020: 67f9 af3e a9af 633f caed 6dbf ce25 4ebf
00000030: 8063 e53b cad7 d4be b4b3 4b3e 7c09 1fbe
00000040: 8678 0cbf 2043 8b3d 68b0 f0bd 0053 ef3d
00000050: 3c67 43be 6808 353e 47ba 0bbf 182b 503e
00000060: ac3d 6b3e 1007 00bf 4c1c 4dbe a61e 833e
00000070: 702b cd3d d886 1bbe 0046 dcbd 5fc7 b2be
00000080: 6e32 73bb 00ee abbc 309c 863d bbb4 e8bd
00000090: 10b3 04bf acef 0abf c832 953d 7891 aabd

sequential/dense_1/MatMul f4 [3, 10]
-0.3562377 -0.52154946 0.89501005 -0.44828475 -0.078121305 -0.45842898 0.22150773 -0.12880379
0.33650133 0.056429625 -0.28100866 0.60541415 -0.37743732 -0.29323122 -0.08845115 -0.54179937
0.217852 -0.3543393 0.090592615 0.17438298 -0.15720968 0.46313286 -0.19020298 0.5377555
-0.37404045 -0.44123015 0.4750638 -0.53186667 -0.21646252 -0.09157467
00000000: ca64 b6be 4484 05bf 611f 653f 9485 e5be
00000010: 10fe 9fbd 34b7 eabe ecd2 623e 24e5 03be
00000020: e749 ac3e c022 673d 5ee0 8fbe 6cfc 1a3f
00000030: 773f c1be 6722 96be e025 b5bd 5db3 0abf
00000040: 9814 5f3e f66b b5be 9f88 b93d 7491 323e
00000050: 93fb 20be c01f ed3e 92c4 42be 58aa 093f
00000060: 3b82 bfbe ebe8 e1be 903b f33e 6a28 08bf
00000070: 5aa8 5dbe 808b bbbd
